last_snake_ep_1500_rew__-1.6593641e+09_.pth (torch, 764544 bytes, 36 tensors)

value_mean_std.running_mean f8 [1]
-684269575170.0189
00000000: 9b40 80a3 34ea 63c2

value_mean_std.running_var f8 [1]
9.260663585292565e+29
00000000: e550 8246 9060 2746

value_mean_std.count f8 []
196608001.0
00000000: 0000 0002 0070 a741

running_mean_std.running_mean f8 [78]
-1216.154744815929 -58694.22883174854 19616651.852295432 -20974123.10907479 37942358647.216194 -12871744466.300497 -10864226792.01151 -0.01518699207517093
-0.05328341876525557 0.014371765970117722 0.036131134971876935 0.005113656261838254 -306713423650.5843 277654813602.9547 -125304067342.00748 122036166588.48846
57700468267.494606 896075483668.2655 30738315294.92482 -415498237682.73114 -12682395360.504208 -2301321.107868784 579376731.5273318 304671582.6967061
166511851.36427358 -606284892.4868459 -369224963.79869026 585713443.7188414 -158401019.6995867 75970155.82073751 -64058604.72961143 1464.4815108702949
0.0 0.0 0.0 0.0 0.0 0.0 327698377013.79254 -40618432959.77423
5303026618.485561 -92437543.8182334 -80030610.75296433 969292089.2091728 395863418478.50494 -48700176258.85852 4621108460.000415 -11254489.329533724
334826166.3695221 1146850568.9945683 385491798456.57697 -47318993699.70717 7442761310.611073 58741516.63452438 718393620.000877 1168982555.4817142
295402976806.61414 -36086894774.73252 10189570082.714617 19240141.713347178 588867470.2197042 1020200326.8910854 128576665313.67613 -14132587769.842157
9012154488.575382 48616983.16859596 656582729.6043859 724397163.6071329 -0.17114036925863002 0.33319718686872934 0.0976186095588245 0.5403915865631077
0.20467136585101753 0.14009907674292219 0.353534001351923 0.6318278576952915 0.24382891300088633 0.24910027710669896
00000000: 90ce 6c75 9e00 93c0 89f5 9652 c7a8 ecc0
00000010: 8900 a3bd 38b5 7241 35c5 beb1 a200 74c1
00000020: b16e eee4 14ab 2142 6b67 92de b9f9 07c2
00000030: 9317 408f 773c 04c2 3dbd 4c92 5b1a 8fbf
00000040: e31c 08da f647 abbf 138f 9ec6 f16e 8d3f
00000050: 42a5 24b6 c77f a23f 9073 85a6 0ef2 743f
00000060: 65a5 c8db 62da 51c2 1abd e80e 6129 5042
00000070: ea01 0e55 b42c 3dc2 0c7d bc1f ec69 3c42
00000080: 3dfd 568c 6ede 2a42 7f88 4259 4814 6a42
00000090: 04b3 7be0 95a0 1c42 cbae bcfd 672f 58c2
000000a0: 9e08 04f7 6f9f 07c2 f2a4 ce8d c48e 41c1
000000b0: 9c7f c32d 4b44 c141 555b b25e eb28 b241
000000c0: 1182 bad6 89d9 a341 f750 3e2e 9611 c2c1
000000d0: f776 cc03 ed01 b6c1 ff02 dc91 a374 c141
000000e0: 3a30 66f7 03e2 a2c1 6a6f 48af d91c 9241
000000f0: 843e d665 a78b 8ec1 5782 2f11 ede1 9640
00000100: 0000 0000 0000 0000 0000 0000 0000 0000
00000110: 0000 0000 0000 0000 0000 0000 0000 0000
00000120: 0000 0000 0000 0000 0000 0000 0000 0000
00000130: b972 4d1a 1613 5342 688c 7f33 18ea 22c2
00000140: dcc4 a73b 5cc1 f341 fade 459f f009 96c1
00000150: 1509 034b ae14 93c1 2dc6 9a9c 1ce3 cc41
00000160: 51a0 9b19 d30a 5742 90b7 056f 83ad 26c2
00000170: b301 c04e 0837 f141 4f8a 8b2a 5b77 65c1
00000180: 0099 5eb6 0af5 b341 02a7 3f42 e316 d141
00000190: ed24 6e82 4670 5642 126a 4716 dd08 26c2
000001a0: f4c6 e965 f8b9 fb41 8581 1365 9802 8c41
000001b0: bd1c 008a e868 c541 68d4 de86 506b d141
000001c0: 4ea7 89ed d831 5142 0d77 6da1 e4cd 20c2
000001d0: 89b7 1501 c4fa 0242 bbde 69db 4c59 7241
000001e0: 441f 1cc7 b38c c141 160f 72c3 8267 ce41
000001f0: 17ad e136 c4ef 3d42 bdbc ce67 f152 0ac2
00000200: 629a c483 54c9 0042 d748 59b9 b02e 8741
00000210: 845c cd24 5491 c341 88b6 cd35 b696 c541
00000220: fade 7e78 ede7 c5bf ec1a 2e4b 1a53 d53f
00000230: bf40 897f 88fd b83f a64e ea4b e34a e13f
00000240: a8fe 60db ab32 ca3f 37c3 673c c4ee c13f
00000250: 6327 7513 4da0 d63f bb18 300e ef37 e43f
00000260: 863a 942b c935 cf3f 0685 cc93 84e2 cf3f

running_mean_std.running_var f8 [78]
1374123415892.002 2.3138488510808538e+21 1.6629206250734905e+24 1.3013490487801656e+25 1.1390907669658863e+29 2.5044316916300785e+28 1.2180583693156738e+28 3.3105877995637942
3.1751695239491067 3.3109062787074497 0.4053011029099329 0.4040653465485862 7.225932092032428e+28 5.904103350322543e+28 1.2078993290160169e+28 1.1403870051225166e+28
2.547881743570759e+27 6.163539498128845e+29 7.22036934970356e+26 1.3258707834061163e+29 1.2289886499226405e+26 4.0759849205051817e+18 9.488938433524703e+25 2.8511177592597492e+26
3.227345520731741e+26 1.9971092727459134e+26 1.1440790675492662e+26 1.3405825043011653e+26 6.017982828884489e+25 2.564118280857788e+24 4.895258165727341e+23 455474748416583.94
1.0172525938186329e-08 1.0172525938186329e-08 1.0172525938186329e-08 1.0172525938186329e-08 1.0172525938186329e-08 1.0172525938186329e-08 inf 2.8009167854744252e+29
9.601047630352248e+27 7.357405995920007e+23 2.127677245763169e+25 1.5037650273375709e+26 inf 3.876090990047077e+29 1.600808015329486e+28 2.2647775647539093e+23
5.942877353566276e+24 2.119338118661572e+26 inf 3.524983405698296e+29 8.398185966073494e+27 5.1813399052371284e+23 2.112318291993026e+25 2.121858604575757e+26
inf 1.9440504564187528e+29 3.873625637560379e+27 3.2832651581979306e+23 1.7968519464968287e+25 1.405702041735002e+26 1.571288531346806e+30 3.3840117273622187e+28
2.3160098986622923e+27 9.21014851793931e+22 1.3395415837193794e+25 9.105689396759623e+25 0.6031434740881568 0.6176158261792959 0.6817998637066365 0.38864578945840983
0.623749024805323 0.5246542162325586 0.4706684728011815 0.2657951347074065 0.35486010441406324 0.6510860728536003
00000000: 0840 9535 02ff 7342 01bb b09d c65b 5f44
00000010: 4054 37b9 3102 f644 03e8 4177 6d87 2545
00000020: 1d35 d013 f600 f745 2505 1d19 0b3b d445
00000030: 227a 8e76 c5ad c345 074e cd74 157c 0a40
00000040: 3cf0 8447 bf66 0940 415b 596e bc7c 0a40
00000050: 23fa 8109 74f0 d93f 9de0 37e6 34dc d93f
00000060: e9a0 864c 702f ed45 75fa ef24 b3d8 e745
00000070: c06d 2a29 c183 c345 8265 1bb5 876c c245
00000080: d05b 29e4 1d77 a045 216e a926 301e 1f46
00000090: f962 6725 0aaa 8245 4951 f05e 97c6 fa45
000000a0: a4c4 8b34 366a 5945 b347 4858 6748 cc43
000000b0: 9132 41f5 669f 5345 10ea f98a d87a 6d45
000000c0: b1be fe31 5baf 7045 edcb f3e1 4da6 6445
000000d0: 3eca 5e43 b4a8 5745 d7c8 5614 fcb8 5b45
000000e0: 82d2 a683 c9e3 4845 24ba 530b c9f7 0045
000000f0: f37d 2ada 4fea d944 7f24 56a9 07e4 f942
00000100: 9b72 32c0 67d8 453e 9b72 32c0 67d8 453e
00000110: 9b72 32c0 67d8 453e 9b72 32c0 67d8 453e
00000120: 9b72 32c0 67d8 453e 9b72 32c0 67d8 453e
00000130: 0000 0000 0000 f07f df7f f63f 3348 0c46
00000140: 91bf f2ea cc05 bf45 3005 877d 9279 e344
00000150: 30f4 6625 8899 3145 9519 0ea3 dd18 5f45
00000160: 0000 0000 0000 f07f eb35 83ed ba91 1346
00000170: bcf4 fc69 c9dc c945 cee4 af1f b1fa c744
00000180: 66cb 851b d0a9 1345 5127 cc5e d7e9 6545
00000190: 0000 0000 0000 f07f 3dab 502c efcb 1146
000001a0: b4bb 770d d122 bb45 0372 e564 066e db44
000001b0: fc70 630a 0279 3145 dff5 6751 83f0 6545
000001c0: 0000 0000 0000 f07f 70d3 8aad 40a1 0346
000001d0: 24f2 2945 6008 a945 b56a f76d a761 d144
000001e0: c7f8 b5c8 f6b9 2d45 4dbe 6782 b911 5d45
000001f0: 6363 ec68 1bd5 3346 aab8 50e4 f855 db45
00000200: 8dbb b9b0 08ef 9d45 6e13 3cde d480 b344
00000210: dc09 2ce5 2d29 2645 05f1 3a07 83d4 5245
00000220: 8324 008b f34c e33f bcd3 dd43 82c3 e33f
00000230: 3e31 a1f2 4dd1 e53f 1bed dc96 92df d83f
00000240: 966c ce83 c0f5 e33f ddac 8da3 f7c9 e03f
00000250: 261e 7ca8 6e1f de3f 3b45 c098 c902 d13f
00000260: 5a44 c727 07b6 d63f 7431 b975 b2d5 e43f

running_mean_std.count f8 []
98304001.0
00000000: 0000 0004 0070 9741

a2c_network.sigma f4 [10]
-1.9847932 -1.3756623 -1.8376791 -1.7025052 -1.6357296 -2.0170193 -2.0314984 -2.4209104
-2.3007402 -1.5036988
00000000: b40d febf b415 b0bf 1239 ebbf b1eb d9bf
00000010: 965f d1bf d816 01c0 1204 02c0 32f0 1ac0
00000020: 543f 13c0 3479 c0bf

a2c_network.actor_mlp.0.weight f4 [256, 78]
0.08075213 0.18408628 -0.008800047 -0.016894042 -0.13731712 -0.14620034 0.10942985 -0.03448252
0.08202747 -0.02468711 -0.14425834 0.18053241 -0.0046393136 -0.073915474 0.13314866 -0.017456599
-0.11600131 -0.012283322 0.18010357 0.019760337 0.011910692 -0.08026204 -0.14656943 -0.0022351497
0.06370961 -0.098141916 -0.0030252018 -0.09142815 -0.12955828 -0.12128441 -0.2753295 -0.15528663
0.11318342 0.021385878 0.034892216 -0.1056057 -0.07436499 -0.0376885 0.05887656 0.11509972
-0.20990184 -0.20328742 -0.0001992602 -0.019843617 0.034281615 0.079024665 -0.21251278 -0.24514474
-0.077611245 -0.05546345 0.12201975 -0.10509638 -0.03846148 -0.10475923 -0.17375214 0.14580406
0.0035205833 -0.12789491 -0.25244725 -0.13402897 -0.07947187 0.06946143 0.017580735 -0.065870665
0.047880497 -0.07736183 -0.07136001 -0.13951868 0.08212279 0.060708184 0.10363041 -0.09555235
0.15840325 -0.012871023 -0.038067598 -0.01883568 0.14798318 -0.06401967 -0.27244073 0.068504274
0.022890765 0.10989021 0.28090924 0.1977768 -0.06389508 -0.09788294 0.18353862 -0.04172915
-0.09001185 0.14659107 0.03547562 0.0041920072 -0.09245408 0.07935961 0.12285404 -0.016489126
0.050593313 -0.0813112 -0.14087959 -0.029314889 0.15897472 -0.22746998 0.0041450006 0.06402771
0.03640511 -0.06747206 0.17271866 0.18932226 0.2863341 -0.054419335 -0.029982839 0.012113204
-0.020002138 -0.033741973 0.07237593 0.09730784 0.029381096 -0.19431366 0.21377997 0.055821516
0.15933785 -0.0033239971 -0.060353674 -0.11171553 0.28227374 0.09412134 0.20587522 -0.1479879
-0.0117973 -0.036987964 0.11905336 0.061994825 0.19389056 0.005768816 -0.046433907 -0.010781158
0.17872334 0.08270504 0.11021981 -0.10550523 -0.023489883 -0.028931608 -0.030846786 0.14596058
-0.032776922 0.12566487 -0.09927882 0.0924302 0.007059245 -0.044006456 -0.08987706 0.012832029
-0.18405636 -0.093043536 -0.093223356 -0.058879018 0.086607635 -0.07713814 -0.015186084 -0.009250258
0.044113316 -0.11416308 0.030291496 -0.13434032 -0.07481036 -0.035892148 -0.2050635 -0.31003135
-0.11376433 0.05820115 -0.105989926 0.1397877 -0.016274927 -0.1817867 -0.11423609 -0.14696625
-0.07621316 -0.008020621 0.1131891 -0.20876464 0.07807175 0.26138106 0.094914116 -0.19708501
0.10909193 0.06195119 -0.018965598 0.07884064 -0.015968714 -0.0008756424 -0.026068479 -0.09454338
0.0543383 -0.11240316 0.20190215 0.10884257 -0.08423384 0.10431557 -0.2777077 -0.016462034
0.19020888 -0.10063096 -0.14914909 0.09377977 -0.1905498 -0.032375276 -0.064499475 -0.010886406
-0.24645574 0.21635273 -0.10374654 -0.034134835 -0.06608692 -0.012254637 -0.2841274 0.035147905
-0.13459882 -0.13953052 -0.14725119 0.05152234 0.012592778 -0.10944151 0.07413045 0.04495648
0.053493217 -0.10666691 -0.18797281 -0.0002781761 -0.11143756 0.042191233 -0.012241801 0.08170759
0.032600895 0.019478908 -0.08482603 0.0760952 0.10344915 0.051051352 0.10794828 0.01261723
-0.1510124 0.041578975 -0.10902953 -0.050679643 0.13296913 0.06276852 0.0751966 -0.11519115
-0.104025945 -0.1824269 -0.09528599 -0.076911904 0.011325406 0.17184131 0.03486454 -0.11432568
00000000: 5f61 a53d 1d81 3c3e 132e 10bc 6065 8abc
00000010: dc9c 0cbe 8bb5 15be c21c e03d 8b3d 0dbd
00000020: 05fe a73d 9f3c cabc 75b8 13be 7ddd 383e
00000030: 6205 98bb ff60 97bd 1f58 083e 2401 8fbc
00000040: 1892 edbd fd3f 49bc 126d 383e 6ee0 a13c
00000050: 1025 433c 6d60 a4bd 4c16 16be 977b 12bb
00000060: 2f7a 823d a1fe c8bd 7742 46bb af3e bbbd
00000070: edaa 04be f663 f8bd fdf7 8cbe 7503 1fbe
00000080: b5cc e73d 7031 af3c 24eb 0e3d cd47 d8bd
00000090: ac4c 98bd 425f 1abd 8c28 713d 67b9 eb3d
000000a0: 82f0 56be 942a 50be 81f0 50b9 158f a2bc
000000b0: e16a 0c3d afd7 a13d f39c 59be 3907 7bbe
000000c0: a5f2 9ebd a42d 63bd 7ee5 f93d c53c d7bd
000000d0: c989 1dbd 028c d6bd 15ec 31be a94d 153e
000000e0: 96b9 663b e2f6 02be c440 81be e43e 09be
000000f0: 26c2 a2bd cb41 8e3d 7905 903c 33e7 86bd
00000100: 571e 443d e16f 9ebd 3225 92bd fcdd 0ebe
00000110: fe2f a83d 25a9 783d 2e3c d43d f3b0 c3bd
00000120: 7634 223e fce0 52bc c5ec 1bbd 494d 9abc
00000130: e788 173e bf1c 83bd 5a7d 8bbe f84b 8c3d
00000140: 6a85 bb3c 1e0e e13d 56d3 8f3e 0086 4a3e
00000150: 6cdb 82bd da76 c8bd 8cf1 3b3e 2fec 2abd
00000160: 2258 b8bd f81b 163e e24e 113d 1b5d 893b
00000170: 9158 bdbd 4b87 a23d e69a fb3d 3414 87bc
00000180: ef3a 4f3d 7d86 a6bd bd42 10be c725 f0bc
00000190: 45ca 223e e4ed 68be c9d2 873b f620 833d
000001a0: 861d 153d cb2e 8abd 29dd 303e b2dd 413e
000001b0: 629a 923e cfe6 5ebd 929e f5bc 7676 463c
000001c0: 86db a3bc 0635 0abd d539 943d 5549 c73d
000001d0: a0b0 f03c 29fa 46be 23e9 5a3e 1aa5 643d
000001e0: 7629 233e 6bd7 59bb 6a35 77bd 1dcb e4bd
000001f0: 2f86 903e b0c2 c03d f4d0 523e 248a 17be
00000200: 7649 41bc b180 17bd 3fd2 f33d 49ee 7d3d
00000210: 3f8b 463e 5608 bd3b 7b31 3ebd 74a3 30bc
00000220: 4003 373e 4361 a93d ecba e13d 2013 d8bd
00000230: db6d c0bc fb01 edbc 66b2 fcbc b176 153e
00000240: 1841 06bd 4bae 003e b252 cbbd 0b4c bd3d
00000250: 3d51 e73b 1d40 34bd 7711 b8bd 6e3d 523c
00000260: 4579 3cbe 9c8d bebd e3eb bebd 202b 71bd
00000270: 585f b13d 9afa 9dbd 0ecf 78bc 658e 17bc
00000280: 2ab0 343d 55ce e9bd df25 f83c 8290 09be
00000290: 2d36 99bd a503 13bd 2bfc 51be 6ebc 9ebe
000002a0: 46fd e8bd 5464 6e3d 3f11 d9bd 8224 0f3e
000002b0: ff52 85bc 4b26 3abe 9cf4 e9bd 527e 16be
000002c0: a515 9cbd ec68 03bc b0cf e73d 66c6 55be
000002d0: 15e4 9f3d bdd3 853e 5562 c23d a7d0 49be
000002e0: 976b df3d 88c0 7d3d be5d 9bbc 3477 a13d
000002f0: d2d0 82bc 5e8b 65ba 908d d5bc f69f c1bd
00000300: d691 5e3d a133 e6bd 70bf 4e3e dae8 de3d
00000310: cb82 acbd 67a3 d53d b42f 8ebe 63db 86bc
00000320: 1ec6 423e 9b17 cebd 8aba 18be 9c0f c03d
00000330: 7d1f 43be f09b 04bd 4d18 84bd e55c 32bc
00000340: e55e 7cbe 928b 5d3e 1179 d4bd f8d0 0bbd
00000350: 9458 87bd acc7 48bc 2679 91be 40f7 0f3d
00000360: 46d4 09be 17e1 0ebe 04c9 16be 1709 533d
00000370: f051 4e3c df22 e0bd b5d1 973d 4924 383d
00000380: b41b 5b3d 2e74 dabd f27b 40be 2ad8 91b9
00000390: 6039 e4bd b7d0 2c3d d691 48bc 4f56 a73d
000003a0: 8488 053d 3b92 9f3c 45b9 adbd cdd7 9b3d
000003b0: 26dd d33d 391b 513d fd13 dd3d 80b8 4e3c
000003c0: ffa2 1abe b74e 2a3d e04a dfbd 7595 4fbd
000003d0: 0f29 083e c88c 803d ad00 9a3d 56e9 ebbd
000003e0: 8e0b d5bd 1ece 3abe 4d25 c3bd fd83 9dbd
000003f0: 328e 393c 2bf7 2f3e 1fce 0e3d 9523 eabd

a2c_network.actor_mlp.0.bias f4 [256]
0.03228875 -0.2600564 0.007841571 -0.1938547 -0.09496903 -0.2581874 -0.033989277 -0.091019586
0.08006915 0.013970874 0.11904823 0.117042005 -0.111780815 -0.11892598 -0.034044765 -0.1454968
-0.055144772 -0.07218859 0.089494534 -0.15558884 0.032485824 0.077632815 -0.17220019 -0.07231875
-0.11114945 -0.049165584 -0.1110731 0.08732697 0.028419439 -0.100288615 -0.07125959 0.040788025
0.033037163 0.1644084 -0.03375661 -0.027061794 -0.17748612 0.067509964 -0.15978794 -0.03188143
-0.06048681 -0.08302739 0.032238316 0.19202304 0.12193684 0.053814437 0.07502368 -0.041706067
-0.050400607 -0.04416753 0.086635426 0.01367626 0.083052896 0.028422464 0.146685 0.15274248
-0.14807497 -0.11718334 -0.13702558 0.15815885 0.01988279 -0.0693104 -0.049315117 -0.04610961
0.075667106 0.0817007 -0.06039623 0.13165122 -0.020166824 -0.072326474 0.083081916 -0.09006238
0.03565579 0.025798406 0.037305437 0.023778694 -0.14022861 0.034346428 -0.1018335 -0.08306275
0.040477466 -0.105449766 -0.01285741 0.09357841 -0.20018642 -0.10918192 0.0071082935 0.008064133
0.022375269 0.17179689 0.029969098 0.038450524 -0.21048985 0.01662241 -0.15749007 0.07566759
-0.030536622 -0.11882455 0.12184233 0.029650403 -0.007173654 -0.11815156 0.12319613 -0.15615076
0.054764442 -0.0349382 -0.17772536 -0.01008995 0.15730508 -0.114653416 -0.040381547 -0.09328741
0.09661573 -0.043879792 -0.030909134 0.06011516 -0.040307894 -0.07233331 -0.030087404 0.009105113
-0.22576977 -0.060042106 -0.031629622 0.034399703 0.016061122 -0.027991293 -0.015025309 -0.18168978
0.008887059 -0.078041054 0.17129165 0.045037635 -0.03798847 -0.0852863 -0.11671447 0.059200093
0.3119205 0.1212151 0.05927 -0.18906935 -0.15772563 0.16081204 -0.10676117 0.09047295
-0.10085511 -0.09073418 0.059956774 0.11403348 -0.07251121 -0.1652433 -0.12672403 -0.0850486
-0.06778299 0.050127454 0.034323998 -0.21687646 -0.08076537 0.029190544 -0.096429594 0.20486797
0.022313839 0.07857309 -0.22151315 -0.1271937 -0.15226436 0.009205191 0.08985916 -0.1095294
0.05171442 -0.19403125 0.14788137 -0.08469872 -0.03511637 -0.20987862 -0.13886574 0.14366841
-0.21116652 -0.0735788 0.006445068 -0.01337008 -0.03407407 -0.07706024 -0.013752091 0.03591767
0.10544546 -0.06933248 0.007677852 -0.044992678 -0.15058728 -0.045684263 0.06973522 0.041282978
-0.0489676 -0.0054503214 -0.0009996106 0.08696902 0.1057748 0.016100235 -0.16403988 -0.120247565
0.061842244 -0.0090504605 -0.17743765 -0.21861899 -0.002363824 -0.08000832 0.08534849 -0.118910655
-0.08823663 -0.122697465 -0.06522174 -0.11428944 0.012948346 0.21152115 0.09485291 0.04584271
-0.112508684 -0.028657787 -0.06483894 0.029549219 -0.10143355 0.036651347 -0.07442967 0.106662445
-0.19532824 -0.1000389 -0.06123782 -0.043529972 0.15749525 -0.10869126 0.046349715 0.20005439
-0.09216098 0.14604801 0.10414499 -0.10142123 -0.15389994 -0.16029525 -0.119731106 0.07121692
0.005722649 -0.0034534726 -0.049473092 -0.013279712 -0.078525014 -0.013520108 -0.0108533325 0.08345644
0.019940024 -0.040171493 -0.042257432 -0.14139001 0.06410709 -0.11296153 -0.051484685 0.029428609
00000000: 3541 043d 1d26 85be ef79 003c d981 46be
00000010: 1f7f c2bd 2431 84be 5738 0bbd 7a68 babd
00000020: 4bfb a33d 18e6 643c 8fcf f33d b8b3 ef3d
00000030: 57ed e4bd 778f f3bd 8672 0bbd 1dfd 14be
00000040: 7cdf 61bd 9dd7 93bd e948 b73d ae52 1fbe
00000050: db0f 053d f4fd 9e3d 3f55 30be da1b 94bd
00000060: 53a2 e3bd da61 49bd 4b7a e3bd 7cd8 b23d
00000070: e2cf e83c 1e64 cdbd 8cf0 91bd 5811 273d
00000080: fa51 073d ad5a 283e 5f44 0abd b2b0 ddbc
00000090: ecbe 35be aa42 8a3d 739f 23be 1a96 02bd
000000a0: 04c1 77bd 440a aabd 530c 043d b0a1 443e
000000b0: 06ba f93d 876c 5c3d 04a6 993d fbd3 2abd
000000c0: de70 4ebd 03e9 34bd ea6d b13d 6412 603c
000000d0: a317 aa3d 3ad6 e83c 9834 163e 8668 1c3e
000000e0: f7a0 17be d2fd efbd 6f50 0cbe 65f4 213e
000000f0: 3ce1 a23c 9cf2 8dbd a6fe 49bd 6edd 3cbd
00000100: 5bf7 9a3d b252 a73d 0a62 77bd 94cf 063e
00000110: e534 a5bc e71f 94bd da26 aa3d a072 b8bd
00000120: ce0b 123d 2e57 d33c 96cd 183d 89cb c23c
00000130: 1798 0fbe d7ae 0c3d 158e d0bd ce1c aabd
00000140: b3cb 253d 0cf6 d7bd e3a7 52bc 0aa6 bf3d
00000150: abfd 4cbe c59a dfbd b0ec e83b 6d1f 043c
00000160: 574c b73c 86eb 2f3e c181 f53c 4c7e 1d3d
00000170: a78a 57be b82b 883c 1445 21be 9cf7 9a3d
00000180: f027 fabc 495a f3bd 7988 f93d 67e5 f23c
00000190: f910 ebbb 72f9 f1bd 414e fc3d fce5 1fbe
000001a0: ae50 603d 5c1b 0fbd a3fd 35be 5150 25bc
000001b0: 9514 213e 69cf eabd 1f67 25bd 780d bfbd
000001c0: 78de c53d 4cbb 33bd 2735 fdbc 503b 763d
000001d0: e419 25bd 7d23 94bd dc79 f6bc 9d2d 153c
000001e0: 3130 67be b6ee 75bd 108e 01bd b4e6 0c3d
000001f0: 9d92 833c ff4d e5bc b72c 76bc e30c 3abe
00000200: 079b 113c fdd3 9fbd 1467 2f3e 6279 383d
00000210: cc99 1bbd 95aa aebd ff07 efbd cc7b 723d
00000220: 0bb4 9f3e 9f3f f83d 19c5 723d 659b 41be
00000230: d482 21be e9ab 243e 9aa5 dabd e249 b93d
00000240: 208d cebd d7d2 b9bd 3c95 753d 638a e93d
00000250: c280 94bd 8a35 29be f2c3 01be f62d aebd
00000260: cfd1 8abd 7252 4d3d 5297 0c3d dd14 5ebe
00000270: 5068 a5bd 0221 ef3c e17c c5bd e9c8 513e
00000280: 83cb b63c eeea a03d 58d4 62be 113f 02be
00000290: 30eb 1bbe 5fd1 163c 1408 b83d f350 e0bd
000002a0: 80d2 533d 21b0 46be 376e 173e 8676 adbd
000002b0: 2fd6 0fbd 6cea 56be d232 0ebe d01d 133e
000002c0: 093c 58be 7bb0 96bd 2631 d33b 2e0e 5bbc
000002d0: 4191 0bbd c2d1 9dbd 7350 61bc 681e 133d
000002e0: caf3 d73d 30fe 8dbd 7e96 fb3b 3e4a 38bd
000002f0: 8d33 1abe 6c1f 3bbd 57d1 8e3d 5718 293d
00000300: 4092 48bd 9c98 b2bb 5e05 83ba d01c b23d
00000310: 75a0 d83d a4e4 833c 12fa 27be 5b44 f6bd
00000320: 4b4e 7d3d 6248 14bc 37b2 35be a8dd 5fbe
00000330: 63ea 1abb 67db a3bd 30cb ae3d 6e87 f3bd
00000340: 68b5 b4bd cf48 fbbd fa92 85bd 9510 eabd
00000350: 4d25 543c 0099 583e 3e42 c23d 91c5 3b3d
00000360: f46a e6bd bcc3 eabc 47ca 84bd 3411 f23c
00000370: 65bc cfbd b91f 163d 956e 98bd d771 da3d
00000380: 2004 48be 32e1 ccbd 82d4 7abd 7c4c 32bd
00000390: 6f46 213e 8699 debd 33d9 3d3d 0fdb 4c3e
000003a0: e5be bcbd 9c8d 153e f849 d53d efb5 cfbd
000003b0: f297 1dbe 7024 24be 9535 f5bd 2dda 913d
000003c0: 0f85 bb3b a853 62bb 4ca4 4abd 2693 59bc
000003d0: b9d1 a0bd 7183 5dbc 2dd2 31bc 36eb aa3d
000003e0: 4359 a33c dd8a 24bd 2116 2dbd 8bc8 10be
000003f0: 944a 833d 6058 e7bd 9be1 52bd 4414 f13c

a2c_network.actor_mlp.2.weight f4 [128, 256]
0.052475277 -0.13662548 -0.1255225 -0.04530526 0.008015215 -0.039802928 -0.019898834 -0.023688773
-0.028205324 0.08901614 -0.056524463 -0.13936722 0.024489468 -0.037849426 0.10042666 -0.041380793
0.046836674 -0.10766107 0.012144439 0.039977264 -0.046503346 0.016662268 -0.0031481283 0.05019283
-0.021193963 0.041402455 -0.08443661 0.054210056 0.08006463 -0.12191192 -0.018503323 -0.02546193
-0.03711917 0.015482508 0.0059988843 -0.08361414 -0.069898464 -0.19181901 -0.06496038 -0.034809593
0.010773737 0.09725527 -0.039532803 0.052630436 -0.036086317 -0.2943368 -0.08032209 -0.11583944
0.055639446 0.016251342 -0.13151637 0.01078511 -0.07484585 -0.1361236 0.02992362 -0.06731011
-0.14354219 -0.12867902 0.0093569895 -0.021479132 0.05605391 -0.020160617 -0.021795541 -0.005187363
0.00798735 -0.05079825 0.052144732 0.08720942 0.048001442 -0.0013202208 0.0989049 0.033845082
0.016276343 0.066591114 -0.16405122 -0.08725882 0.122559495 -0.0685117 0.04941036 -0.0003213067
-0.25864118 0.00015586858 -0.015404972 -0.060797833 -0.13134548 -0.019869456 -0.09266686 0.070926644
0.027396085 -0.07915684 0.0030677728 0.04880525 -0.050399676 0.04342328 0.05586996 0.020822255
0.01747268 0.010990397 0.0040438264 0.020998381 -0.019304343 -0.009076174 -0.09266623 -0.0015914148
-0.011623686 0.09479963 0.08286415 -0.039945718 0.039905187 -0.038421985 0.11418817 -0.048829235
0.051665813 0.039430425 -0.11525248 -0.07998925 0.12525204 0.037760608 0.0042123627 -0.0023118767
-0.045260254 -0.11722945 0.011939794 0.10483461 -0.17386469 -0.006463079 -0.032426707 0.01340064
-0.005140912 0.0031115722 -0.12382953 0.0054287473 0.044536337 -0.008748912 0.05391468 0.1678002
-0.07039452 0.074418865 0.12085952 -0.05710374 0.002770171 -0.07510322 0.011945806 -0.03712324
0.028829176 -0.09092636 0.03704013 -0.02117983 0.083353415 -0.0973797 0.07233098 0.025361093
-0.115059316 -0.14407025 0.09784522 -0.10526418 -0.06268681 -0.10297061 0.04724126 0.10772095
-0.10775189 -0.023740284 -0.041789744 0.047479793 -0.088013686 0.058681518 0.09674726 -0.045747444
-0.02103951 -0.008119303 0.09453997 -0.0010050467 0.0589269 -0.08469234 0.038399614 -0.034158055
0.05415734 0.0310134 -0.06775314 -0.111606255 -0.082085334 -0.004198514 -0.120575204 -0.052482773
-0.078939624 0.12963596 0.06380384 0.10494206 0.09387675 -0.1548389 -0.12645362 0.07621989
-0.08684338 -0.072461694 -0.15097053 0.07482293 -0.09887765 0.031530775 0.0208953 -0.00934827
0.0048443987 -0.18573558 -0.053430863 -0.070307136 0.007837653 -0.016734987 0.007043143 0.025875947
-0.11858027 -0.0706861 -0.032914095 -0.041167855 -0.012574342 0.049015783 0.0059512965 0.118320055
-0.04665999 -0.03267021 -0.10805785 0.031208666 -0.174655 -0.051193133 0.028464379 -0.021560028
0.009243034 -0.079635784 0.09059526 -0.033680532 -0.0053682644 -0.039386205 0.014961793 0.043394227
0.13450402 0.04644846 0.064216584 -0.019991918 -0.11655614 -0.063238166 -0.030345533 0.08665296
-0.001986667 0.053157844 -0.0051391786 -0.10179241 0.034004323 -0.07322026 -0.17375988 0.017965306
0.07017144 0.002783777 -0.063498504 -0.08512424 0.049868103 0.06321053 -0.060193248 0.07741515
00000000: 51f0 563d 8de7 0bbe f888 00be 0292 39bd
00000010: 4052 033c 6508 23bd e102 a3bc f50e c2bc
00000020: da0e e7bc 184e b63d 3286 67bd 48b6 0ebe
00000030: 239e c83c 0008 1bbd 7eac cd3d e87e 29bd
00000040: d0d7 3f3d 687d dcbd 78f9 463c 33bf 233d
00000050: 4b7a 3ebd 4f7f 883c d450 4ebb ff96 4d3d
00000060: f69e adbc 9f95 293d 1aed acbd 5d0b 5e3d
00000070: edf8 a33d f5ac f9bd 4894 97bc 8a95 d0bc
00000080: 450a 18bd 58aa 7d3c 4a92 c43b e43d abbd
00000090: ed26 8fbd 346c 44be f309 85bd 8194 0ebd
000000a0: 5484 303c c52d c73d 26ed 21bd 0393 573d
000000b0: 3fcf 13bd 50b3 96be e87f a4bd 3a3d edbd
000000c0: 30e6 633d 8921 853c 3aac 06be 08b4 303c
000000d0: c848 99bd fc63 0bbe 6122 f53c e2d9 89bd
000000e0: b9fc 12be 6fc4 03be 0f4e 193c 01f5 afbc
000000f0: c998 653d e127 a5bc 908c b2bc c1fa a9bb
00000100: 60dd 023c d311 50bd b795 553d da9a b23d
00000110: 299d 443d 420b adba a78e ca3d 24a1 0a3d
00000120: f755 853c ec60 883d 0bfd 27be c1b4 b2bd
00000130: 7900 fb3d dd4f 8cbd 8562 4a3d 0e75 a8b9
00000140: 9e6c 84be a770 2339 2365 7cbc 2607 79bd
00000150: 6e7f 06be 45c5 a2bc 1fc8 bdbd fd41 913d
00000160: c16d e03c fb1c a2bd b00c 493b 04e8 473d
00000170: e46f 4ebd 9cdc 313d e6d7 643d 6f93 aa3c
00000180: de22 8f3c 1111 343c 1382 843b cc04 ac3c
00000190: 2424 9ebc 3cb4 14bc cbc7 bdbd 0597 d0ba
000001a0: 4671 3ebc 4f26 c23d aeb4 a93d 1f9e 23bd
000001b0: 9f73 233d 5f60 1dbd 7ddb e93d 2a01 48bd
000001c0: 889f 533d cc81 213d 7e09 ecbd 67d1 a3bd
000001d0: 1242 003e deaa 1a3d dc07 8a3b db82 17bb
000001e0: d162 39bd fe15 f0bd 209f 433c 87b3 d63d
000001f0: 9609 32be 3cc8 d3bb ded1 04bd 5c8e 5b3c
00000200: 1875 a8bb 85eb 4b3b 569a fdbd a2e3 b13b
00000210: bc6b 363d 9957 0fbc a4d5 5c3d d1d3 2b3e
00000220: 012b 90bd eb68 983d 3285 f73d 9ce5 69bd
00000230: c28b 353b b8cf 99bd 58b8 433c 8a0e 18bd
00000240: 2a2b ec3c 9937 babd 64b7 173d 5381 adbc
00000250: 32b5 aa3d 026f c7bd 4422 943d 11c2 cf3c
00000260: 38a4 ebbd 2787 13be 1363 c83d bf94 d7bd
00000270: f161 80bd 41e2 d2bd 0d80 413d cd9c dc3d
00000280: 06ad dcbd fc7a c2bc b92b 2bbd 2c7a 423d
00000290: 8540 b4bd 085c 703d 6d23 c63d ac61 3bbd
000002a0: 0d5b acbc d306 05bc 2c9e c13d c5bb 83ba
000002b0: 555d 713d 2d73 adbd ea48 1d3d 51e9 0bbd
000002c0: 16d4 5d3d d00f fe3c 29c2 8abd d291 e4bd
000002d0: 5b1c a8bd b093 89bb 22f0 f6bd 2df8 56bd
000002e0: 19ab a1bd 4abf 043e 96ab 823d ddeb d63d
000002f0: 7442 c03d 178e 1ebe 0f7d 01be 2c19 9c3d
00000300: f1da b1bd cc66 94bd 0598 1abe c43c 993d
00000310: 5e80 cabd 6a26 013d 9f2c ab3c 7c29 19bc
00000320: c3bd 9e3b 7831 3ebe 52da 5abd 30fd 8fbd
00000330: 8069 003c d017 89bc 2aca e63b cbf9 d33c
00000340: 36da f2bd e0c3 90bd eed0 06bd a09f 28bd
00000350: 9d04 4ebc c6c4 483d 1803 c33b c951 f23d
00000360: 8c1e 3fbd 33d1 05bd 6f4d ddbd 51a9 ff3c
00000370: c3d8 32be e4af 51bd 212e e93c a89e b0bc
00000380: 1870 173c 1618 a3bd 028a b93d 99f4 09bd
00000390: 44e8 afbb 6e53 21bd 4f22 753c 25be 313d
000003a0: 6cbb 093e be40 3e3d fc83 833d 17c6 a3bc
000003b0: fcb4 eebd 0383 81bd 3297 f8bc 1b77 b13d
000003c0: be32 02bb 0abc 593d 8e66 a8bb 8a78 d0bd
000003d0: 1e48 0b3d 81f4 95bd 1cee 31be fa2b 933c
000003e0: 0bb6 8f3d 0770 363b 810b 82bd 9e55 aebd
000003f0: 7f42 4c3d 8674 813d 328d 76bd d68b 9e3d

a2c_network.actor_mlp.2.bias f4 [128]
-0.060410485 -0.08145697 -0.08810582 -0.063396275 -0.087254815 0.02610945 -0.14813453 -0.09942117
-0.10275624 0.030503854 -0.18426606 -0.17201534 -0.04837267 -0.10810382 0.035713565 -0.029523775
0.04124088 -0.08004592 -0.11527969 -0.04395551 -0.08043621 -0.25197107 0.0472249 -0.04948281
-0.0008999973 -0.067360364 -0.0043844036 -0.15037607 -0.14820231 -0.006829052 -0.025576686 -0.06511976
-0.08937636 -0.0630794 -0.029330669 -0.099807575 -0.029948529 0.03611343 -0.028555965 -0.10550219
-0.08253058 -0.08251842 0.09550311 -0.07569982 -0.068116516 -0.014594097 -0.11355814 -0.0345851
-0.12921336 -0.099742256 -0.11330803 0.07374287 -0.049691867 -0.2276413 -0.118817344 -0.058416314
-0.043373514 0.0040045297 -0.05848903 -0.123641185 -0.0883791 -0.24044928 0.066918656 -0.056107577
-0.0030533848 -0.080716856 -0.04186362 -0.11327886 -0.008384859 -0.06253076 -0.012537762 -0.0022546703
-0.14653021 -0.039973658 -0.008999264 -0.15259013 -0.1364725 -0.064892024 0.1099356 -0.166321
0.018557297 -0.14242713 -0.09548373 -0.10238779 -0.05530167 0.013741416 -0.12906851 5.8023394e-05
0.0071923602 0.017185267 0.12481583 -0.03287822 -0.08442632 -0.013609088 -0.12864918 0.012501388
-0.050894704 0.029709904 0.02009596 -0.062499598 -0.030305086 0.030421304 -0.18898371 0.016356492
-0.16791882 -0.07641279 -0.010056941 -0.15963264 -0.16695167 -0.03743496 -0.06186873 -0.08041771
-0.09122965 -0.17026372 -0.046215378 -0.06259013 -0.103088394 0.07300924 -0.08976991 -0.10777329
0.011643038 -0.053611334 -0.19306341 -0.048592 -0.023607284 0.04419299 0.027048247 0.12687185
00000000: fc70 77bd e9d2 a6bd d370 b4bd e8d5 81bd
00000010: a7b2 b2bd 7ce3 d53c 94b0 17be 549d cbbd
00000020: dd71 d2bd 38e3 f93c 3eb0 3cbe ca24 30be
00000030: 6c22 46bd 8965 ddbd 6348 123d d8db f1bc
00000040: 32ec 283d 1eef a3bd c217 ecbd b10a 34bd
00000050: bdbb a4bd 5a02 81be e66e 413d 7dae 4abd
00000060: cced 6bba 3bf4 89bd 0bab 8fbb 2ffc 19be
00000070: 59c2 17be 3ec6 dfbb 3386 d1bc 825d 85bd
00000080: f40a b7bd c62f 81bd df46 f0bc ea67 ccbd
00000090: 9e56 f5bc adeb 133d 33ee e9bc 8811 d8bd
000000a0: cb05 a9bd 6bff a8bd 2297 c33d 8208 9bbd
000000b0: ac80 8bbd 141c 6fbc 2c91 e8bd 1ba9 0dbd
000000c0: 8250 04be ab45 ccbd 0a0e e8bd 8006 973d
000000d0: b389 4bbd cd1a 69be 8256 f3bd f245 6fbd
000000e0: 6da8 31bd 6e38 833b 3192 6fbd 9737 fdbd
000000f0: 1a00 b5bd 5638 76be a60c 893d 0fd1 65bd
00000100: 4c1b 48bb e14e a5bd 3079 2bbd bffe e7bd
00000110: a660 09bc 2110 80bd 2f6b 4dbc 17c3 13bb
00000120: 040c 16be 6bbb 23bd a671 13bc 9640 1cbe
00000130: 72bf 0bbe 1ce6 84bd ea25 e13d 0d50 2abe
00000140: 7905 983c 6bd8 11be f98c c3bd b1b0 d1bd
00000150: 0184 62bd ad23 613c 892a 04be 255e 7338
00000160: e4ad eb3b 1ec8 8c3c 719f ff3d 50ab 06bd
00000170: b5e7 acbd a7f8 5ebc 9cbc 03be 9fd2 4c3c
00000180: f776 50bd 2f62 f33c 48a0 a43c 94ff 7fbd
00000190: 5f42 f8bc 1936 f93c f284 41be 0dfe 853c
000001a0: e9f2 2bbe 4f7e 9cbd dec5 24bc bd76 23be
000001b0: 61f5 2abe 6755 19bd 116a 7dbd 0ab2 a4bd
000001c0: 9cd6 babd 9d59 2ebe 564c 3dbd 412f 80bd
000001d0: 0220 d3bd de85 953d 49d9 b7bd 3eb8 dcbd
000001e0: 71c2 3e3c 8f97 5bbd 6ab2 45be 6808 47bd
000001f0: 1064 c1bc b503 353d 4994 dd3c b2ea 013e

a2c_network.actor_mlp.4.weight f4 [64, 128]
0.013019112 0.024448501 0.13049439 0.06277596 -0.014669166 0.078056805 0.08317288 0.040758573
0.011978268 0.044444468 -0.0677063 -0.09622846 -0.0058447267 0.06897424 -0.08087318 0.094357334
-0.091199465 0.05860186 0.0041369814 -0.0530644 -0.0058589904 0.044797253 0.12597482 -0.09948248
-0.028816376 -0.06472494 0.087080434 -0.08007099 -0.04340094 0.07600932 -0.023227049 -0.016369049
-0.02745683 -0.04588574 -0.008183911 -0.01822577 0.01778555 -0.05628243 0.05349265 -0.06836104
-0.04051757 0.10826741 0.041475713 -0.047574364 0.03680282 -0.057257205 -0.106931426 -0.03810584
-0.07941812 -0.070890516 -0.012902189 -0.004250247 -0.08743964 -0.12783337 -0.12128433 -0.04300422
0.045102376 -0.046512626 -0.04408644 -0.055297166 0.035067428 -0.070619754 -0.071438886 0.0905873
0.08979873 -0.16091636 -0.016806353 -0.12684871 0.11179145 0.05347977 -0.047194224 -0.010525288
0.02747117 -0.034424838 0.06360514 0.014814841 -0.019825822 0.07500845 -0.051186334 -0.06964694
-0.115516104 0.0038000585 0.078662686 -0.029216884 -0.004239802 0.00220577 0.043135498 -0.009980921
-0.02285566 0.13724649 0.073068164 -0.062470265 -0.07322374 -0.033735275 -0.0003618788 -0.015382136
-0.25034735 0.09999155 -0.021282671 -0.019520596 -0.050478984 -0.11293534 -0.04014944 -0.057627708
0.020287393 -0.074595094 0.0151413325 0.13966928 -0.11241151 -0.08538216 0.033441253 -0.0898973
-0.061183125 0.010175008 0.016252365 0.06497778 0.021546924 -0.027796632 -0.10980074 -0.02760523
-0.07607907 0.04753274 -0.04507497 -0.0032563854 -0.05139432 -0.018835887 -0.007995529 0.05506333
0.018668761 0.049029496 -0.02682075 -0.0323253 0.05017126 -0.118063554 -0.1369291 -0.048439004
-0.12089996 0.018092725 -0.047702555 -0.047589567 0.07253462 -0.009857574 0.03656843 0.108667575
0.09782289 -0.02761442 0.022959417 -0.099012926 -0.0946342 -0.108419314 0.028239222 0.027447933
-0.05407537 -0.2153271 -0.2401089 -0.12172224 -0.05770588 -0.10428438 0.039914936 -0.051486954
-0.001932474 -0.036451515 -0.03334492 0.0066413675 0.006383312 0.09345865 -0.037843358 0.06276233
-0.037348785 -0.21830256 -0.019748664 -0.078508 0.047123216 -0.056264583 -0.14654413 -0.051310662
-0.08051135 -0.06593088 -0.027888447 -0.036079638 -0.07990623 -0.22559534 -0.0038076201 -0.022133067
-0.047586694 -0.13548577 -0.056889657 -0.11724812 -0.07259254 -0.13589507 0.074498616 0.14586833
-0.10852294 0.00012598181 0.019621478 -0.06020463 -0.0097387405 -0.03584538 -0.06720874 -0.00060973765
-0.0248294 0.18116559 0.05795245 -0.09563771 0.008545996 -0.12299819 0.027707664 -0.032738738
0.09145938 -0.07204909 0.16326137 -0.02703479 0.0033904188 -0.14193381 -0.08681416 -0.10527233
-0.010465074 0.12883973 0.079011425 0.033516377 -0.20829247 -0.09269607 0.04286104 -0.0036830965
-0.03082094 -0.048681255 -0.02731213 0.13589345 0.015670026 -0.025849747 0.100389585 -0.016581094
-0.11240386 -0.084153004 -0.12837826 -0.09561665 -0.07264385 -0.1913826 0.0065414747 -0.03840464
-0.15193148 -0.10486264 0.034187738 -0.07759281 -0.17523624 0.015774976 -0.060152285 -0.08958579
0.016310044 -0.0443496 -0.09863183 -0.13468495 0.076351844 -0.10704288 0.14384162 0.07156978
00000000: 1d4e 553c 3948 c83c 52a0 053e af90 803d
00000010: f156 70bc 3fdc 9f3d 8b56 aa3d 76f2 263d
00000020: 7f40 443c 670b 363d 9aa9 8abd 6d13 c5bd
00000030: 1f85 bfbb 5e42 8d3d d6a0 a5bd 6b3e c13d
00000040: c9c6 babd 8108 703d 848f 873b 0e5a 59bd
00000050: c6fc bfbb 537d 373d 8bff 003e 78bd cbbd
00000060: 5210 ecbc 828e 84bd 3a57 b23d 42fc a3bd
00000070: 2fc5 31bd c6aa 9b3d a746 bebc 6218 86bc
00000080: 25ed e0bc b0f2 3bbd d015 06bc 364e 95bc
00000090: 00b3 913c 6888 66bd 1c1b 5b3d df00 8cbd
000000a0: c0f5 25bd 4ebb dd3d 70e2 293d 56dd 42bd
000000b0: 8ebe 163d 8886 6abd ddfe dabd df14 1cbd
000000c0: f8a5 a2bd 0c2f 91bd b463 53bc a845 8bbb
000000d0: 8e13 b3bd c0e6 02be eb63 f8bd 3125 30bd
000000e0: 45bd 383d 0684 3ebd fc93 34bd 487f 62bd
000000f0: dda2 0f3d 17a1 90bd 8d4e 92bd d685 b93d
00000100: 66e8 b73d 42c7 24be 7aad 89bc a1e4 01be
00000110: eaf2 e43d 9a0d 5b3d bb4e 41bd 4272 2cbc
00000120: 380b e13c 0f01 0dbd 6943 823d f2b9 723c
00000130: c369 a2bc 089e 993d c3a8 51bd 0ea3 8ebd
00000140: b593 ecbd 670a 793b e719 a13d 3f58 efbc
00000150: 09ee 8abb ae8e 103b d9ae 303d 0487 23bc
00000160: cb3b bbbc 588a 0c3e c3a4 953d d2e0 7fbd
00000170: 54f6 95bd 002e 0abd 8dba bdb9 5b05 7cbc
00000180: 872d 80be 5fc8 cc3d ff58 aebc a8e9 9fbc
00000190: 0dc3 4ebd a54a e7bd bd73 24bd 080b 6cbd
000001a0: bf31 a63c 50c5 98bd 5a13 783c 7705 0f3e
000001b0: 0138 e6bd d8dc aebd b2f9 083d 131c b8bd
000001c0: 289b 7abd 14b5 263c ae23 853c 1213 853d
000001d0: 2d83 b03c c3b5 e3bc 36df e0bd 5d24 e2bc
000001e0: 58cf 9bbd b1b1 423d 88a0 38bd 1569 55bb
000001f0: da82 52bd b84d 9abc aeff 02bc 168a 613d
00000200: 3bef 983c 27d3 483d 31b7 dbbc 8967 04bd
00000210: 6180 4d3d 4ecb f1bd 2437 0cbe fa67 46bd
00000220: 669a f7bd 3237 943c c163 43bd 47ed 42bd
00000230: 088d 943d a981 21bc c7c8 153d 1b8d de3d
00000240: 5e57 c83d a337 e2bc 6315 bc3c 4ac7 cabd
00000250: 93cf c1bd f20a debd f155 e73c 7dda e03c
00000260: 237e 5dbd b57e 5cbe 1cdf 75be 8249 f9bd
00000270: 005d 6cbd 0d93 d5bd d87d 233d fce3 52bd
00000280: 114b fdba 2f4e 15bd af94 08bd d49f d93b
00000290: 1a2b d13b 4067 bf3d a301 1bbd 8989 803d
000002a0: 0afb 18bd b58a 5fbe f3c7 a1bc cdc8 a0bd
000002b0: 4604 413d b175 66bd aa0f 16be 212b 52bd
000002c0: 22e3 a4bd c506 87bd 5076 e4bc 3ec8 13bd
000002d0: e1a5 a3bd 7702 67be 4489 79bb 6850 b5bc
000002e0: 44ea 42bd c8bc 0abe 2105 69bd c81f f0bd
000002f0: 66ab 94bd 1428 0bbe bb92 983d 825e 153e
00000300: 4641 debd fc19 0439 39bd a03c 2199 76bd
00000310: 3d8f 1fbc 9bd2 12bd bca4 89bd cdd6 1fba
00000320: 0767 cbbc 7983 393e 8c5f 6d3d b4dd c3bd
00000330: 8104 0c3c 7ae6 fbbd 2ffb e23c 0e19 06bd
00000340: 0e4f bb3d 798e 93bd fd2d 273e 1078 ddbc
00000350: ca31 5e3b 1957 11be 9fcb b1bd 0599 d7bd
00000360: b475 2bbc 90ee 033e bed0 a13d 7848 093d
00000370: 9f4a 55be 70d7 bdbd 0f8f 2f3d 1b60 71bb
00000380: 327c fcbc ff65 47bd b0bd dfbc a727 0b3e
00000390: 6d5e 803c d9c2 d3bc 0e99 cd3d 13d5 87bc
000003a0: ff33 e6bd 6958 acbd 9775 03be aad2 c3bd
000003b0: 4dc6 94bd cdf9 43be de59 d63b 2f4e 1dbd
000003c0: ed93 1bbe 39c2 d6bd 7108 0c3d fbe8 9ebd
000003d0: 2171 33be 863a 813c 3e62 76bd c178 b7bd
000003e0: a49c 853c eda7 35bd 7cff c9bd daea 09be
000003f0: 5b5e 9c3d 4c39 dbbd 384b 133e 2d93 923d

a2c_network.actor_mlp.4.bias f4 [64]
-0.00077147037 0.0755215 0.00302601 -0.050591342 -0.14400679 0.1250325 -0.11328359 -0.075514816
-0.061146 -0.23839681 0.042520817 0.02656341 0.006566365 -0.04193563 -0.021541111 0.027947547
0.10485437 -0.18672779 -0.099781744 -0.024289966 -0.02733808 0.025931358 -0.045048643 -0.038065184
-0.07376983 0.042017546 -0.016218403 0.07988628 0.008751915 -0.0031532256 -0.040254172 0.064816535
-0.08055707 -0.10267701 0.0018893094 -0.022170985 0.050330292 0.058598474 -0.0491482 -0.047289792
-0.06452972 -0.07563777 -0.018732473 -0.057567645 -0.025107678 -0.12372374 -0.055111784 -0.13822116
0.025945261 -0.02300599 -0.10642236 0.033820126 -0.055032395 0.023929367 0.03195638 -0.0003319126
0.00094116555 -0.08600933 -0.015038271 -0.17846787 0.025367273 -0.01816036 -0.07944992 0.057214856
00000000: 803c 4aba 04ab 9a3d 0650 463b de38 4fbd
00000010: 8476 13be 8508 003e 3a01 e8bd 83a7 9abd
00000020: 3a74 7abd 4b1e 74be 4f2a 2e3d 829b d93c
00000030: a92a d73b b2c4 2bbd fc76 b0bc 41f2 e43c
00000040: e3bd d63d 9235 3fbe 5f5a ccbd c0fb c6bc
00000050: 1cf4 dfbc 006e d43c ed84 38bd 3dea 1bbd
00000060: a314 97bd 971a 2c3d 75dc 84bc 6b9b a33d
00000070: 3164 0f3c 59a6 4ebb 8fe1 24bd 88be 843d
00000080: 1bfb a4bd 5348 d2bd b4a2 f73a ed9f b5bc
00000090: 2327 4e3d f404 703d 9f4f 49bd f1b2 41bd
000000a0: 2828 84bd fae7 9abd d874 99bc 0dcc 6bbd
000000b0: 9eae cdbc df62 fdbd e5bc 61bd d989 0dbe
000000c0: 288b d43c 0f77 bcbc f7f3 d9bd f986 0a3d
000000d0: a669 61bd 8507 c43c b1e4 023d 8e04 aeb9
000000e0: 8db8 763a a925 b0bd 1563 76bc 48c0 36be
000000f0: 07cf cf3c 09c5 94bc a4b6 a2bd 205a 6a3d

a2c_network.value.weight f4 [1, 64]
0.0009234483 6.368172e-05 0.00026601536 0.00012692656 0.00053809653 -0.0013890545 0.0002413756 -0.0007762603
0.00029695986 0.00054309977 -0.00029655173 0.00064995885 -0.00061548373 0.0011199442 -0.00067219476 0.00041436846
0.00014332976 -0.00069080555 -0.0021247473 0.00102037 -0.00023683453 -0.00089521665 -0.00020888977 -0.00060872367
0.00043521888 -0.00084898516 -0.00029053818 0.0003663069 0.00046316005 0.00046118302 -0.0013381442 0.00014270602
0.0022387686 -0.00014140962 -0.00049632834 0.00071205595 -0.0009621491 -0.00031333597 7.530152e-05 -0.0005242169
-0.00078137236 9.237347e-05 0.00046845755 0.0006192016 -0.0007437618 3.4210567e-05 -0.00058999314 0.0012500901
-0.00074348657 -0.00029009968 0.000110738256 3.3666114e-05 -0.00038395787 0.00032541994 0.00019910219 -2.1867135e-07
0.0014779669 0.00010548387 -0.0001394918 0.00011171169 -0.00024299404 -0.00015099572 -0.006334032 0.00024104594
00000000: 9113 723a dd8c 8538 fa77 8b39 9717 0539
00000010: 0c0f 0d3a ef10 b6ba c519 7d39 f27d 4bba
00000020: 47b1 9b39 cf5e 0e3a 807a 9bb9 0062 2a3a
00000030: 6a58 21ba 17cb 923a 3a36 30ba 983f d939
00000040: ca4a 1639 2d17 35ba 583f 0bbb f0bd 853a
00000050: c956 78b9 f9ac 6aba 6c09 5bb9 c192 1fba
00000060: 172e e439 6e8e 5eba 6053 98b9 e10c c039
00000070: 4ad4 f239 f0ca f139 ab64 afba 5ba3 1539
00000080: 4eb8 123b 5b47 14b9 081c 02ba 44a9 3a3a
00000090: bc38 7cba 3e47 a4b9 32eb 9d38 9a6b 09ba
000000a0: 03d5 4cba a1b8 c138 4f9b f539 ea51 223a
000000b0: 02f9 42ba 517d 0f38 c5a9 1aba 10da a33a
000000c0: 8ae6 42ba 8518 98b9 263c e838 b734 0d38
000000d0: f44d c9b9 209d aa39 16c6 5039 eccb 6ab4
000000e0: 57b8 c13a 3937 dd38 8c44 12b9 c246 ea38
000000f0: 37cc 7eb9 9b54 1eb9 b68d cfbb 47c1 7c39

a2c_network.mu.weight f4 [10, 64]
-0.024621168 -0.11162158 -0.025126545 -0.0038686248 0.055719588 0.043564722 0.010738028 0.031162582
-0.001520679 0.07926239 -0.014095864 -0.17976932 -0.0045143007 -0.09263791 -0.08061968 0.05349576
-0.14322242 -0.000538213 -0.017004691 -0.025083909 -0.12012889 0.006189993 0.021892754 -0.028929954
0.060695186 -0.088808514 -0.057831652 0.060573082 -0.026349654 -0.04331279 0.07625965 0.0076389345
0.0017954068 0.116675615 -0.03963231 0.03231675 -0.096166834 -0.0115110325 -0.18023328 0.028970808
0.084772944 -0.11942939 0.05273484 0.09628684 -0.026279164 0.09389344 -0.09951631 0.021848504
0.010162159 0.01600392 0.011232691 -0.07153005 0.05554401 0.005408833 -0.09763073 -0.028530104
0.12743066 0.07694193 -0.040092077 0.13296185 -0.03622985 -0.084538266 -0.024220873 -0.073781274
-0.03739063 -0.0072366744 -0.02836852 -0.0076858243 0.03075579 0.034121007 0.020732017 0.021731932
0.04239334 -0.09937746 -0.045227293 0.038442414 0.040508453 0.019055322 0.03172887 0.0811954
-0.013720581 -0.01004476 -0.051887278 -0.00011348785 0.03205019 0.01748479 0.01220663 0.08801829
-0.0036957164 -0.075572014 0.060392484 0.050769612 -0.09204206 0.16223815 -0.043229602 0.03396782
-0.01419309 -0.07734039 0.088361725 -0.021573918 0.007192398 -0.07407064 0.06638933 -0.0551233
-0.063454054 -0.07337211 0.004279753 -0.0035170652 0.022956518 0.060124993 0.09958276 -0.050149728
-0.05263839 0.06562934 0.06355508 -0.027102672 -0.04482661 0.0360522 -0.03520367 -0.060036946
0.016395014 0.027977813 -0.19676992 0.0045697126 -0.0940985 0.041128878 0.08822217 -0.046496045
0.036961872 -0.062064942 -0.064837374 -0.017503606 -0.0034269842 0.04199123 0.014988158 0.03051875
-0.008369896 -0.0071008545 0.035353303 -0.010540153 -0.007359291 -0.07982761 -0.099247195 0.07760139
-0.021287153 0.02067299 0.021664662 -0.040572926 -0.0005357672 0.032099564 -0.025393758 0.03918116
-0.059689626 0.039698664 -0.014104461 -0.015976952 -0.026468545 -0.00500146 -0.033303533 0.19381861
-0.0034371577 0.0030989388 0.039058257 -0.03377102 -0.03841115 -0.07624911 -0.058379147 0.033629496
0.11635854 0.017110802 0.13150932 0.038141247 -0.0029361777 0.11733828 -0.12913842 0.04911481
-0.034833297 -0.028766517 0.018027496 -0.06331257 0.0653131 0.067439355 -0.04403838 -0.032279223
0.005568215 0.012700245 0.08014619 0.010739403 -0.031401552 -0.0139003685 -0.06921541 -0.0012821851
0.040982112 0.10855748 0.010474635 0.043516394 -0.02527602 0.082133934 0.071728654 0.0045656622
-0.06821104 -0.0022131763 0.04316654 -0.00661529 -0.019710774 0.02544153 -0.2068661 0.019352501
0.08345566 0.08362856 -0.09991006 0.019101057 0.08146742 0.0948349 0.03632179 -0.0715881
0.003121524 0.052634723 0.00423937 0.1475928 -0.021813508 -0.020362046 -0.040035207 -0.027594397
0.005542674 0.009214122 0.05933051 0.014297564 0.07621443 0.034070406 -0.051530052 0.0446692
0.069630146 -0.094203286 0.05326694 0.06854293 -0.04932263 -0.10695558 0.033108633 0.012053645
0.032595094 -0.02387105 -0.025815466 -0.039466575 -0.016210014 0.07228144 -0.03115937 0.05598304
-0.03540678 -0.0056161303 0.044377543 -0.07092409 0.030197838 -0.05856755 -0.042147577 0.11580991
00000000: 55b2 c9bc db99 e4bd 2fd6 cdbc c188 7dbb
00000010: 393a 643d ec70 323d 8eee 2f3c ac48 ff3c
00000020: 8551 c7ba 5254 a23d 57f2 66bc 7315 38be
00000030: b3ec 93bb f2b8 bdbd ee1b a5bd 5f1e 5b3d
00000040: e6a8 12be dd16 0dba 6c4d 8bbc c57c cdbc
00000050: 2306 f6bd 6dd5 ca3b 6f58 b33c 83fe ecbc
00000060: 849b 783d 3de1 b5bd e2e0 6cbd 7b1b 783d
00000070: 3bdb d7bc c168 31bd 052e 9c3d 0750 fa3b
00000080: db53 eb3a a0f3 ee3d 7d55 22bd 925e 043d
00000090: 1ef3 c4bd c598 3cbc 138f 38be 3054 ed3c
000000a0: 709d ad3d 6597 f4bd 7d00 583d 0932 c53d
000000b0: 6747 d7bc 344b c03d 35cf cbbd a2fb b23c
000000c0: 2f7f 263c a71a 833c 5209 383c 597e 92bd
000000d0: 1e82 633d 943c b13b 9ff2 c7bd f7b7 e9bc
000000e0: 2f7d 023e bb93 9d3d 9737 24bd 2727 083e
000000f0: c065 14bd 6622 adbd da6a c6bc a31a 97bd
00000100: eb26 19bd a021 edbb 1965 e8bc 5ed9 fbbb
00000110: 91f3 fb3c 78c2 0b3d 31d6 a93c 2a07 b23c
00000120: a4a4 2d3d 6986 cbbd 4140 39bd cb75 1d3d
00000130: 31ec 253d e819 9c3c 22f6 013d c649 a63d
00000140: 4acc 60bc c792 24bc c187 54bd 5300 eeb8
00000150: 0f47 033d 433c 8f3c 51fe 473c ef42 b43d
00000160: d533 72bb 80c5 9abd 1c5e 773d ccf3 4f3d
00000170: 8c80 bcbd c221 263e 8611 31bd d721 0b3d
00000180: 228a 68bc a364 9ebd fef6 b43d c9bb b0bc
00000190: 35ae eb3b 59b2 97bd 21f7 873d f8c8 61bd
000001a0: 33f4 81bd 1e44 96bd 2c3d 8c3b 907e 66bb
000001b0: 4f0f bc3c a045 763d 0cf2 cb3d cd69 4dbd
000001c0: 5a9b 57bd ad68 863d 2a29 823d 6c06 debc
000001d0: 1b9c 37bd 79ab 133d b931 10bd 4de9 75bd
000001e0: d64e 863c ba31 e53c 0e7e 49be 87bd 953b
000001f0: b7b6 c0bd c176 283d d3ad b43d a372 3ebd
00000200: 5565 173d cf37 7ebd 75c9 84bd b963 8fbc
00000210: 4197 60bb fffe 2b3d e490 753c 7502 fa3c
00000220: e321 09bc 49ae e8bb a0ce 103d 9bb0 2cbc
00000230: 3526 f1bb a87c a3bd 1d42 cbbd 7aed 9e3d
00000240: 6562 aebc 675a a93c 177a b13c cc2f 26bd
00000250: ba72 0cba d57a 033d 9206 d0bc 6d7c 203d
00000260: 1c7d 74bd 119b 223d 6616 67bc 19e2 82bc
00000270: 90d4 d8bc 4ae3 a3bb 4969 08bd 6378 463e
00000280: f041 61bb 9117 4b3b 8dfb 1f3d 7b53 0abd
00000290: 0355 1dbd 7e28 9cbd f91e 6fbd 15bf 093d
000002a0: 634d ee3d f42b 8c3c 61aa 063e ff39 1c3d
000002b0: e36c 40bb 0d4f f03d dd3c 04be 9c2c 493d
000002c0: 5cad 0ebd c2a7 ebbc 66ae 933c 05aa 81bd
000002d0: e0c2 853d a51d 8a3d 9761 34bd 3837 04bd
000002e0: 9375 b63b b014 503c b023 a43d 52f4 2f3c
000002f0: ea9e 00bd 5fbe 63bc cfc0 8dbd fe0e a8ba
00000300: dcdc 273d 6253 de3d ce9d 2b3c 3f3e 323d
00000310: a80f cfbc d635 a83d 79e6 923d 8d9b 953b
00000320: 3bb2 8bbd f00a 11bb 66cf 303d 13c5 d8bb
00000330: 7d78 a1bc c16a d03c b5d4 53be 2389 9e3c
00000340: cdea aa3d 7345 ab3d a59d ccbd d279 9c3c
00000350: 64d8 a63d cd38 c23d 28c6 143d c89c 92bd
00000360: 7b92 4c3b 8297 573d 6aea 8a3b 9122 173e
00000370: 3eb2 b2bc 4ece a6bc f5fb 23bd a50d e2bc
00000380: 529f b53b d4f6 163c 8d04 733d 5440 6a3c
00000390: 5016 9c3d 698d 0b3d 2d11 53bd 0df7 363d
000003a0: 409a 8e3d a7ed c0bd 6f2e 5a3d 3c60 8c3d
000003b0: 8706 4abd 870b dbbd eb9c 073d a77c 453c
000003c0: 6f82 053d 388d c3bc f57a d3bc b4a7 21bd
000003d0: ddca 84bc 4b08 943d ef41 ffbc 794e 653d
000003e0: b306 11bd 8407 b8bb 3ac5 353d a640 91bd
000003f0: 7561 f73c 87e4 6fbd f0a2 2cbd bf2d ed3d

a2c_network.mu.bias f4 [10]
0.00884324 0.15477815 0.12833329 0.2204569 0.11716571 -0.024371475 0.030145856 0.296924
-0.0545068 -0.02100415
00000000: 3de3 103c 2a7e 1e3e cd69 033e 74bf 613e
00000010: 93f4 ef3d b0a6 c7bc 71f4 f63c 6c06 983e
00000020: 8642 5fbd e510 acbc

exp_avg f4 [10]
0.00077935244 -1.807387e-05 0.0004746932 -1.9677887e-05 0.0005170126 0.0006815879 0.0003061693 0.0012481479
-0.0006790842 0.002588522
00000000: 754d 4c3a 579d 97b7 3ee0 f839 f111 a5b7
00000010: 2188 073a 97ac 323a 5985 a039 e598 a33a
00000020: 9204 32ba 31a4 293b

exp_avg_sq f4 [10]
1.085182e-05 9.496517e-06 1.1093998e-05 9.790342e-06 9.765472e-06 1.08105905e-05 1.0488972e-05 1.00391335e-05
1.1011271e-05 1.0252685e-05
00000000: 3610 3637 3b53 1f37 5c20 3a37 3341 2437
00000010: 62d6 2337 225f 3537 cbf9 2f37 c06d 2837
00000020: 0dbd 3837 f202 2c37
